app/src/main/ml/model.tflite (tflite, 149220 bytes, 10 tensors)

sequential/conv2d/Relu;sequential/conv2d/BiasAdd;sequential/conv2d_2/Conv2D;sequential/conv2d/Conv2D;sequential/conv2d/BiasAdd/ReadVariableOp f4 [32, 3, 3, 3]
00000000: ec6c fdb9 b10b 6db9 a178 cd39 5bcb 133a
00000010: b28f f4b9 0426 fc39 f6e4 b7b9 9cd3 01ba
00000020: 2811 8ab9 abed 2cb9 4168 aa37 4176 15b8
00000030: 2e98 9e39 9407 003a 0f1a 5a39 b5b4 163a
00000040: e809 6fb9 2d2a bcb9 0eff 7a39 607e 8a38
00000050: b01d f139 934a fb39 d77c cb39 e55a 163a
00000060: 5206 99b9 fee4 9b39 ebc9 033a 1322 5cb9
00000070: 0176 ae39 85b4 02ba e9f5 08ba 563d 56b8
00000080: 5623 feb9 d3b5 b8b8 30eb 0239 f4a0 88b9
00000090: 3c81 0dba 958c a139 2564 4739 bb94 46b9
000000a0: 0872 093a 1cce dfb9 b2e3 0aba f1bd 4ab9
000000b0: ac7b 9eb9 f36f 0aba 8249 e5b9 60b0 adb9
000000c0: 61ec 08ba 9918 27b7 f1eb fab8 fd8b 63b9
000000d0: 5f45 043a 4fce 8836 f68c d539 6f14 06b6
000000e0: 197c 04ba 5213 6cb9 33a0 3138 9cfd 8cb9
000000f0: 3b1c f539 0b5f c939 e047 4c39 2cd6 80b8
00000100: f045 17ba 788f 4f39 a9d6 05b9 0ace a1b8
00000110: 8ab8 04ba 6474 7039 0bc7 0dba 172b b6b9
00000120: 6485 063a 2a01 6eb9 efad c2b7 2747 9e39
00000130: 72d6 e335 6679 1eba d77e b1b8 47ac 8539
00000140: 9c02 c939 85e6 ecb9 c8c5 70b9 f683 b137
00000150: 5d34 93b9 20bf 8eb8 d8e1 7a39 df35 feb9
00000160: fc33 073a ace0 7839 67c7 b139 a002 3a38
00000170: 0e44 023a 5418 cab9 e557 fcb9 1b59 bab8
00000180: 856b bbb8 a4b4 77b9 67c8 adb7 5f73 fe39
00000190: 4e6e e339 1596 133a a6e1 a639 f913 c4b9
000001a0: fd0e b939 acc2 f338 204d d639 a43a d139
000001b0: 4c42 b539 b079 5538 0f8a c4b9 cc74 0dba
000001c0: 8c4c d638 e22f e139 3490 14b8 76b7 b839
000001d0: 7a7e f5b9 31dc b6b9 dd2d 153a fea3 c0b9
000001e0: fefd 9db9 0f51 e7b9 c0c4 18ba 0768 8c39
000001f0: 0152 c8b9 db27 93b9 78d7 e339 9074 3339
00000200: 92ac 92b9 50d1 0b38 cf1b f0b9 a980 9c39
00000210: 124a f9b9 1768 d8b9 73ca c9b9 091e c239
00000220: cd83 67b9 0685 95b9 96ea fbb9 6c45 1239
00000230: 2ddd fdb9 1f75 99b9 6816 ed39 91c3 42b9
00000240: 00b0 f1b8 df65 52b9 3863 f139 77ef 9f39
00000250: a08f 0c3a 9b6f df39 2f99 d1b9 c24f 4d39
00000260: 2215 bd39 e00c 5e39 7426 51b9 af2d 79b7
00000270: ffe3 003a 5fc4 f239 ea0f 3239 8d57 5fb9
00000280: f86c be39 0c6c f6b9 2a2d 9fb9 9b26 7b39
00000290: f12b af39 5e56 a7b9 7647 8fb9 a355 07ba
000002a0: 09da feb8 db22 8839 dded c6b9 e814 ed39
000002b0: 29e6 f039 a02c dc39 f893 d3b9 ac3e 8eb8
000002c0: d0da e3b9 15d6 4bb9 6f5f ac39 e1d8 2cba
000002d0: 8ef8 9e39 9e65 7b39 1146 ffb8 af9d 0d3a
000002e0: 373f e1b9 57e2 efb9 ba5f 053a fe52 9639
000002f0: 4117 8eb9 b821 0cba 870a 23b9 bc6b 05ba
00000300: 485e eb39 6a2a 6839 94e4 11b9 2036 13b9
00000310: aadd d4b4 1553 a039 47e2 e4b8 abfa 27ba
00000320: 1c71 deb9 20c3 e739 769d feb7 b7e0 0f3a
00000330: 5e89 03b9 da77 0bba 03d1 2939 eac0 ea39
00000340: 9b62 8638 3df4 cf39 5b8a ec39 48bd 0739
00000350: 33b0 8339 8adb 9bb9 4e2b 2039 3892 b839
00000360: 7f63 0c3a e797 bd38 d97e 003a 3f36 dc39
00000370: e7bd f4b9 35ba e5b9 2623 c339 d31b f2b9
00000380: 3703 4e39 cfd5 dc39 1410 6eb9 2bde 7b39
00000390: 4af5 09ba edb4 d439 5f8e 6a39 24b7 63b8
000003a0: 89c3 fcb8 4505 06ba af75 ad39 73af c639
000003b0: 1f47 8a39 007e 6cb7 5743 2aba 6ebb 9a39
000003c0: fe01 0eba 9b8e bdb9 6319 f439 6e40 e7b9
000003d0: bd32 d5b9 819f c239 f880 a739 73cd 8639
000003e0: da87 043a f9d0 f9b9 15ca f839 42cc 3db9
000003f0: 2ded a539 9cce fbb9 b9ee 093a 72f5 d1b9
-0.00048337074 -0.00022606437 0.00039190523 0.00056379073 -0.00046646368 0.0004809351 -0.0003507507 -0.0004952492
-0.00026334194 -0.00016491736 2.0314126e-05 -3.56345e-05 0.0003024949 0.0004883942 0.00020799808 0.00057489733
-0.00022796507 -0.00035889578 0.00023936873 6.603892e-05 0.0004598922 0.00047930013 0.0003881219 0.000573559
-0.00029187143 0.00029734516 0.00050273415 -0.00020993529 0.00033275786 -0.0004986006 -0.0005224632 -5.10787e-05
-0.00048472983 -8.807671e-05 0.0001248538 -0.0002605986 -0.00053979806 0.00030813055 0.00019015426 -0.00018938158
0.0005243127 -0.00042687438 -0.00052982115 -0.0001933498 -0.0003022825 -0.0005280964 -0.0004373305 -0.0003312854
-0.00052232115 -9.959703e-06 -0.000119648765 -0.00021700557 0.00050457375 4.0771333e-06 0.0004073155 -1.997945e-06
-0.00050538924 -0.00022513911 4.2349286e-05 -0.00026891835 0.00046751075 0.0003840852 0.00019481732 -6.143408e-05
-0.00057706144 0.00019794505 -0.00012763836 -7.715456e-05 -0.0005062899 0.00022931542 -0.0005408383 -0.0003474585
0.0005131571 -0.00022697882 -2.3207596e-05 0.0003018912 1.697523e-06 -0.00060453115 -8.4636435e-05 0.00025496093
0.00038339652 -0.00045185178 -0.00022961863 2.1161493e-05 -0.0002807704 -6.8066875e-05 0.00023925991 -0.00048486792
0.00051575876 0.0002373482 0.00033908637 4.43483e-05 0.00049692474 -0.00038546568 -0.00048130672 -8.885768e-05
-8.936882e-05 -0.0002362305 -2.0716527e-05 0.00048532613 0.00043378997 0.0005629969 0.00031830108 -0.00037398914
0.00035297117 0.000116234034 0.00040874723 0.00039907277 0.00034572405 5.0896488e-05 -0.00037486895 -0.0005396127
0.00010218573 0.0004295102 -3.542025e-05 0.00035231904 -0.00046824274 -0.000348778 0.0005690733 -0.00036743277
-0.00030134612 -0.00044120147 -0.0005827658 0.00026780387 -0.0003820807 -0.0002806772 0.0004345735 0.00017114193
-0.00027975865 3.333512e-05 -0.00045797086 0.00029850498 -0.00047548168 -0.00041276283 -0.00038488544 0.0003702494
-0.00022078976 -0.00028518605 -0.0004804923 0.00013949507 -0.0004842071 -0.00029269696 0.00045220857 -0.00018574136
-0.00011524558 -0.0002006511 0.00046041026 0.00030505258 0.0005361978 0.00042617027 -0.00039977717 0.00019580036
0.00036064634 0.00021176366 -0.00019946118 -1.4852193e-05 0.00049167866 0.00046304145 0.00016981331 -0.00021299552
0.00036320812 -0.00047001278 -0.00030360493 0.00023951607 0.0003341134 -0.0003191707 -0.00027328328 -0.0005162602
-0.00012152276 0.0002596591 -0.00037942725 0.0004521974 0.0004594785 0.00041994918 -0.00040355301 -6.782761e-05
-0.00043459842 -0.0001943934 0.000328775 -0.0006593597 0.00030321296 0.0002397508 -0.000121723984 0.000540222
-0.00042962443 -0.0004575427 0.0005087812 0.00028672063 -0.00027101676 -0.00053456007 -0.00015548813 -0.0005089601
0.00044892938 0.00022141045 -0.0001391343 -0.00014039176 -3.964936e-07 0.0003057948 -0.00010914035 -0.0006407897
-0.00042427413 0.00044205133 -3.0352483e-05 0.0005488502 -0.00012544307 -0.00053202885 0.00016194959 0.0004477569
6.4079846e-05 0.00039664088 0.0004511651 0.00012945116 0.00025117546 -0.00029727473 0.00015274921 0.00035204156
0.0005355402 9.040516e-05 0.0004901714 0.00042002086 -0.00046680795 -0.0004381702 0.00037219486 -0.00046178568
0.00019646889 0.0004212097 -0.00022703438 0.0002401999 -0.0005262686 0.0004057059 0.00022369016 -5.429158e-05
-0.00012052718 -0.00051124796 0.00033084812 0.00037896223 0.000263744 -1.4096033e-05 -0.000649502 0.00029512815
-0.0005417167 -0.00036155139 0.0004655822 -0.00044107757 -0.0004066433 0.00037121403 0.0003194881 0.00025711543
0.0005055644 -0.00047648678 0.0004745281 -0.00018100537 0.00031647962 -0.00048028387 0.00052617077 -0.00040046457

sequential/conv2d/BiasAdd/ReadVariableOp f4 [32]
00000000: 12b8 e6bc 0000 0000 c23a ba3c f1e2 d43a
00000010: 06fc f13a da97 f3bc 7181 9f3a daae 63bc
00000020: 5a54 293c 7143 9ebc d283 35bc 6074 cc3b
00000030: a3f9 6e3b e9b3 50bc a980 693c bf45 dbbc
00000040: 7d1f d23c 1a7b 6f38 c555 cfbb e26d 97bc
00000050: 2d91 a33c b54a a4bb f1c8 0d3d ed1b e4bc
00000060: bc69 813c ce35 74bb 85d0 0bbd 74c0 a73c
00000070: aa84 113b ee87 173c 9ca2 cebc 782e d5bc
-0.028163943 0.0 0.022733096 0.001624195 0.001846195 -0.029735494 0.0012169314 -0.013896668
0.010335052 -0.019319268 -0.011078792 0.006239459 0.0036464713 -0.012738206 0.014251866 -0.026766656
0.02564978 5.7096688e-05 -0.006327363 -0.018485013 0.019966686 -0.0050137886 0.03461546 -0.027845347
0.015797488 -0.0037263515 -0.034134407 0.020477511 0.0022204318 0.009248717 -0.025224023 -0.026023135

sequential/conv2d_1/BiasAdd/ReadVariableOp f4 [32]
00000000: 2087 9d3c 6c62 423b a4bb efbc e89e b73b
00000010: 9e6c 5d3c e81e 3f3c 5d9d 24bc b659 223c
00000020: c407 8bbc 8d8a 593c 2c2f 983c d27e bb3c
00000030: e06f 0cbc 8048 d7bb 26f2 bf3b 4847 8f3c
00000040: cbc3 b23b 0dab 983c 0c26 07bc 52a1 043b
00000050: 3152 13bc f60e 3cbc 0365 b6bb 175a 60bb
00000060: b994 9ebc 22a7 aabb 7393 3a3b 0000 0000
00000070: ac5d 80bc 84a2 893a e78e b33c 1099 953c
0.019229472 0.0029660715 -0.029264279 0.00560366 0.013514666 0.0116650835 -0.010047284 0.009909084
-0.016971476 0.013277662 0.01857718 0.022887621 -0.008571595 -0.006569922 0.0058577238 0.017490044
0.0054554692 0.01863625 -0.008248817 0.0020237756 -0.008991764 -0.011478176 -0.0055662408 -0.0034233385
-0.019358026 -0.005207912 0.0028469234 0.0 -0.015669666 0.0010500704 0.021918727 0.018261462

sequential/conv2d_2/BiasAdd/ReadVariableOp f4 [32]
00000000: dcd3 233c eee2 1db9 5855 7d3c 7985 3bbc
00000010: b278 b2bb 939f 1ebc 1050 8abc 0e0e 58bc
00000020: f82c 2cbc a186 6a3c f2af edbb b2bb a43c
00000030: fb02 413c 0000 0000 7cd3 2bba df48 16bc
00000040: d669 feb9 a936 043c a851 04bc e91b 03bc
00000050: 784e b9bb 13fa 8abc efa7 1a3d 51c4 7039
00000060: 2790 9a3c bdeb d73c 8414 6a3c 0000 0000
00000070: bf28 74bc 51be c4bb 3143 6f39 02b4 9cbc
0.009999242 -0.00015057225 0.015462242 -0.011445397 -0.005446517 -0.0096816 -0.01688388 -0.013186945
-0.010508768 0.014314325 -0.0072536403 0.020109031 0.011780496 0.0 -0.0006554646 -0.009172647
-0.0004852551 0.008069673 -0.008076109 -0.00800226 -0.005655106 -0.016964948 0.03775781 0.00022961317
0.018867565 0.026357526 0.014287118 0.0 -0.014902293 -0.006004133 0.00022817847 -0.019128803

sequential/conv2d_1/Conv2D f4 [32, 3, 3, 32]
00000000: 2fdc bc3d 8a40 b73d 476a 023e df4a 46bd
00000010: 87bd 8a3d b3bd cd3d 20f4 923d 8806 cc3d
00000020: ab7b d33c c7bf 97bd 842f dc3d 07fa 84bd
00000030: 685e c7bd 74fa fbbc 3bf4 a83a 9a6c b63c
00000040: 8bb8 cc3c 6040 543d d2a8 36bd 6375 13bd
00000050: c8f2 a9bd b2f7 89bd fb82 8a3d 8b02 e13d
00000060: 9054 913d 7eda 0abd 77d9 b3bd a7fa 403d
00000070: 4c62 6b3c 80b9 6f3d fac6 a93d 5465 a5bd
00000080: 65bf b73c 0072 1f39 a554 50bc 6480 2ebd
00000090: 11a6 9c3d 25b6 853d 55df 7c3d 3d95 9e3d
000000a0: 4c56 89bd 4bb3 8c3d 8b59 95bd 15a1 db3c
000000b0: f1f4 283d 5b03 403d eef2 1d3d ddba 7d3d
000000c0: b145 353e 8053 d73b 303f c73d 7f92 50bc
000000d0: 0633 8bbc 3843 dbbb cd5e 273d c736 893c
000000e0: 36b4 4abb d7b0 a53b 40ce db3b 56a8 e83d
000000f0: 860a 6f3c a2b9 e23d cdf5 85bd f139 ea3d
00000100: a236 5d3d 706e a63d 6670 e53d acd6 5a3d
00000110: 6b7c f43b d5f5 593c 7dc4 9b3d 5b68 233d
00000120: 9102 fdbc 66f7 fabc b7e9 14bd 31ab be3c
00000130: ce76 90bd 38ad e83c ae60 c63d 92d2 e13d
00000140: 88e4 083e 7547 56bd 37d0 d93d c34d e23d
00000150: 705f 223c e2cf e43c e325 123e 00e0 e73d
00000160: 4a61 703d 533e 0f3d 11c3 b33d 00ee 40bc
00000170: f18f 40bd 6bc1 dfba f39c a93c 77b4 963d
00000180: 8d81 ba3d 9049 d5bb e2cd 16bd 89a1 9dbd
00000190: 1ee2 bb3d 1d58 503c 78cf 48bd 5c77 be3d
000001a0: 18ff 2bbd 8175 6a3b 8bc5 9b39 0d7a 06be
000001b0: ac19 ae3d 798a 1bbd 0bad c73d c72e b6bc
000001c0: 839e 483e e827 073d 327a 873c 5428 f0bd
000001d0: fd08 19bd c80c 333d 8fc6 893d 10b4 57bd
000001e0: e1f3 433d 1a0e 253d d629 e2bc 7593 b0bc
000001f0: 7ab1 003d dac5 4ebd 171c c3bb ab5f 83bd
00000200: e548 a7bd cc87 593d 62fb d8bc be1e fabd
00000210: cddf 8f3d 0c71 60bd 65c2 943d 681d 1b3c
00000220: ad31 1fbd dfd7 58bd d848 0aba 85a5 873d
00000230: 48cd 99bd 39c2 863c 127f 94bc febb 123d
00000240: aa7e 9e3d 52c1 bf3d 3e53 553c 9f72 6abd
00000250: 5d21 683d 1725 a3bd ef73 a23d 77a3 5c3d
00000260: 073f fd3d 4216 c83d 6bda 87bd 3a5e a3bc
00000270: e9f4 9d3d 6303 3a3d 4501 d0bc a08b d4bd
00000280: 8a07 d23c d2d1 59bd f1ca 893d 4dc7 abbd
00000290: 6c71 3f3d ab46 b3bd ab10 923d d40f 7fbb
000002a0: 475a aabc c366 93bd dadf c33d b2d5 b3bd
000002b0: b7a6 68bc a074 40bc 4803 67bd b24e ab3d
000002c0: 2f59 2e3e a09a 3d3d 2e1a 7d3d 3f31 543c
000002d0: 5a84 04bc 4f5b b23c ac91 853d 2707 a5bd
000002e0: af9b 4fbd e3d4 a6bd d115 93bd c160 603d
000002f0: 26d3 4b3d f22a 763d e4be a6bd 74f9 0e3d
00000300: fe8b 2f3d d04d 7a3d 267b 043e e848 823d
00000310: ba6f 71bd bcaf 8f3d 148f 7ebd eb97 9bbd
00000320: 33b9 4b3a d579 c8bd c02f 26bd d6fb 93bd
00000330: 0068 b5bb 032c 8f3d b4bf 35bd 1cec 0ebd
00000340: 554d 233e f8e9 143d a12d 343d 9c9e 283c
00000350: 9069 83bd 535b bcbd 5ae9 90bd 199e 36bd
00000360: 9e5f c63d d557 e1bc fec5 c9bd ce74 1b3c
00000370: 4159 023d a203 8cbd af77 083d f5bf 9f3b
00000380: 092f 05bd cce5 d3bc 4c02 ac3a 0c4a bdbd
00000390: 77eb 91bd 898e a73c 9d54 c03d 67d0 b2bb
000003a0: a072 143d 57da 1cbc 6e8d cdbd 72d1 123c
000003b0: d4a0 05ba faf2 39bd 80f5 debc b1e3 60bd
000003c0: 4cb3 303e da31 b43d c092 463d a735 abbd
000003d0: 6b7c e4bc f52d a0bd 490d 1abd 9b90 853c
000003e0: 2687 be3a b1a8 a3bd 7f29 aebc 9113 21bd
000003f0: f974 bb3d 282d 993d 3616 06bd 49b1 233d
0.09221684 0.08947857 0.12735854 -0.048411246 0.06774431 0.10045948 0.071754694 0.09962183
0.025815805 -0.074096255 0.107512504 -0.064930014 -0.097348034 -0.030759074 0.0012890169 0.022268582
0.02499034 0.051819205 -0.044594593 -0.03600062 -0.0829826 -0.06736697 0.06763264 0.10986813
0.07096207 -0.033899777 -0.087817125 0.04711404 0.0143666975 0.058526516 0.08289905 -0.080759674
0.022430131 0.0001520589 -0.012715493 -0.04260291 0.07648862 0.06528882 0.061736424 0.07743309
-0.06705913 0.06870135 -0.072924696 0.026810208 0.04124922 0.0468782 0.038561754 0.061945785
0.17702366 0.0065712333 0.09728849 -0.01273024 -0.016992103 -0.0066913627 0.040861893 0.016749753
-0.0030930168 0.0050564813 0.0067079365 0.113602325 0.014589911 0.11070563 -0.065410234 0.11436833
0.05400718 0.08126533 0.11203079 0.053427383 0.007461121 0.01330324 0.076058365 0.039894443
-0.030885013 -0.030635547 -0.0363557 0.02327499 -0.0705391 0.02840291 0.09686409 0.11026491
0.13368428 -0.05231424 0.10635417 0.11049988 0.009910449 0.027931157 0.14272265 0.113220215
0.058686532 0.034971546 0.0877744 -0.011775494 -0.047012273 -0.0017071193 0.020704722 0.0735864
0.09106741 -0.0065090135 -0.03681744 -0.07696826 0.09173988 0.01271632 -0.049025983 0.0930011
-0.041991323 0.0035775604 0.00029711085 -0.13132496 0.0850099 -0.037973855 0.09749802 -0.022239102
0.19591717 0.032997042 0.01653776 -0.11726442 -0.037362088 0.04371336 0.06727325 -0.052661955
0.047840003 0.04029665 -0.02760784 -0.021554688 0.031419255 -0.050481655 -0.0059542763 -0.064147316
-0.081682004 0.05310802 -0.026487056 -0.12212895 0.070251085 -0.05479531 0.0726364 0.00946746
-0.038865734 -0.052940246 -0.0005275137 0.06623367 -0.075098574 0.016450034 -0.018126998 0.035823815
0.07739003 0.09363045 0.013020335 -0.057238217 0.056672443 -0.07966059 0.07932269 0.05386683
0.12365537 0.0976987 -0.06633457 -0.019942392 0.077127285 0.045413386 -0.02539123 -0.10378194
0.02563836 -0.053178616 0.06728161 -0.08387623 0.046739027 -0.08753713 0.071320854 -0.0038919346
-0.020795 -0.071973346 0.09564181 -0.087809935 -0.014199904 -0.011746556 -0.056399614 0.08364619
0.17026208 0.04629004 0.061792545 0.012951194 -0.008088196 0.021772055 0.06521925 -0.08058005
-0.05068558 -0.08146074 -0.071818955 0.05477977 0.049761914 0.06009955 -0.08141878 0.034905866
0.042858116 0.061109364 0.12937602 0.06361562 -0.05894444 0.070159405 -0.06214817 -0.075973354
0.0007771432 -0.097888626 -0.04057288 -0.07225768 -0.0055360794 0.069908164 -0.044372275 -0.03489314
0.15947469 0.036355942 0.043988828 0.010291722 -0.06416619 -0.09197106 -0.07075758 -0.044584367
0.09686206 -0.027507702 -0.09852217 0.009488298 0.0318234 -0.068366304 0.033317264 0.004875178
-0.03251556 -0.025866412 0.0013123243 -0.09242639 -0.071249895 0.020453708 0.09391139 -0.0054569724
0.036242127 -0.009573541 -0.10036741 0.0089610685 -0.00050975126 -0.045397736 -0.027216673 -0.054904643
0.17255896 0.08798571 0.048479795 -0.08359843 -0.027891358 -0.078212656 -0.037610326 0.016304305
0.0014536127 -0.0799116 -0.021260021 -0.0393253 0.0915317 0.07479316 -0.032736026 0.039963994

sequential/conv2d_2/Conv2D f4 [32, 3, 3, 32]
00000000: bf7f 03be d008 c8bc 4e37 45bd 42fd cebc
00000010: 3770 483b bcdb aebd fe37 43bc f231 083d
00000020: 425c c7bd 9b87 dbbd c71c 163c 3317 153c
00000030: 6517 2d3d aa98 963d 9802 603d f8c1 883d
00000040: 54f8 fbbc 734b 9cbb 6316 5e3d eb32 8f3d
00000050: a7fd ad3d 59f8 a1bc 0a6b 62ba 9889 993c
00000060: 172d 52bd d138 19bc aaa0 8a3b 180a 1bbc
00000070: 54c2 edbc 1667 17bd 2387 653d b96a d3bd
00000080: 4966 22bd 30a1 90bd 79b3 633c 6004 653d
00000090: 5768 a93b bae2 6bbd 74ee e5bb d810 bdbd
000000a0: 6d69 733d c89d cebd bbee 82bd 1787 4b3d
000000b0: 50c8 ab3b bc9c 27bd 0a6d eabd f66b 9f3d
000000c0: 0bbf 21bc 451e abbc 5982 0c3d dc96 4e3c
000000d0: 5036 5b3c 11d8 db3c cd44 7cbd 4c1a 41bd
000000e0: 0bb2 91bd 06bf 313d a078 adbd 08a3 e03c
000000f0: f11d d1bc cae3 d8bc c5ba cbbc d2c9 6b3d
00000100: 7cad 983c 415e c5bd 067d c63d 9828 a03d
00000110: 5932 213e 118d 603d ba2b 03bd 65e3 82bb
00000120: abb5 d8bb a5d5 853d e3e7 4f3d 3f44 043d
00000130: 0320 bd3d 602e 803b 1265 5f3d 9295 1d3e
00000140: c3d3 82bd 3f6d cfbc af1a 273d 61c5 2a3d
00000150: 251c 96bd ac16 e03d d9b8 8ebd 025b 56bd
00000160: 12ac 823b d53d c23c 360e cabd e44f 7f3d
00000170: 3770 ee3d 6517 2bbd ea7f 4f3d 7bc9 d3bc
00000180: d4f5 92bd 1ca9 88bd dffa 94bd e439 78bb
00000190: 84b1 603d b601 92bd 6e81 4cbd 9958 3fbd
000001a0: 87e7 0abc 774d dfbd 5d98 82bc c6db 23bd
000001b0: 2597 02bd 9cfc c63d 7103 bebd 3648 6cbd
000001c0: 5e16 113d 8078 b8bd 21c2 8d3d 7a0b b4bd
000001d0: a019 043b 65bd da3c de61 a7bd 8fc3 18bd
000001e0: fd6f bb3d 31d9 843d ac64 bcbd c23e acbd
000001f0: 924a c03d 63f4 233b a5fb 5dbd 354c 2dbd
00000200: 4e28 babd 824c bbbd b3d2 e53c 0c7c a83b
00000210: 0b64 ac3c c33c 8fbd 3e9d 733d 965f 283d
00000220: a680 8fbd 1486 ab38 4f8a 623d 1369 10bd
00000230: 4441 b8bc 88a7 5e3c c611 ecb8 9a58 9bba
00000240: 71f7 cdbd 0d90 fb3b 7b8a 4cbb ebe4 41bd
00000250: 0afe 9dbd c83f c03c b86d dc3c 901c 023d
00000260: fc24 2f3d 220a 8bba a669 a9bc 888f 283c
00000270: 0aa4 49bc c42e 93bd 55c3 0f3d 6421 b13d
00000280: 70b4 22bd f5c0 d83d 8be5 8d3d ca83 993d
00000290: c344 fe3d fac2 f83c a8f7 86bc cd68 d4bb
000002a0: 8c9f a33d fbae a53d 6f32 013d 0753 ae3c
000002b0: f8da e13c b0a8 91bc 46f5 3a3d b5ec 583d
000002c0: 81fd 213c d8f0 e3bd 803d 903d 8077 003e
000002d0: 38ac 8fbc 463d 183c 002e d8b9 9ce5 8a3d
000002e0: 6a1f a03d 9756 de3d 1ee4 a7bd c858 613d
000002f0: dbc2 123d dada 913c 5502 a4bd 84a6 b6bd
00000300: 9cdf 3f3d 83d8 5e3c 1b3b 343d fed2 183c
00000310: 9996 263d 3fd9 0a3b d42a 1c3d 9df1 e63c
00000320: 8360 2dbd 158c 5abd 7297 aaba 0703 c53d
00000330: 8b4f 3abd 383f 163c 0ec3 10bc dd84 7ebd
00000340: 2e0d c73c ffb3 82bd 1f84 bebd 6808 cebd
00000350: 5062 c5bb 7261 e3bc e202 a5bd 81e1 7bbd
00000360: e1f4 ae3c 8690 dabd 00ec 04bd d241 8b3d
00000370: 7413 1c3d 0e40 543b cb85 9cbd d076 fa3c
00000380: 0aa6 c2bd efb1 203d 9fea 863b 0d83 803d
00000390: c1f7 a13d d189 67bd ca34 dd3d 8baa aa3d
000003a0: 1372 ec3d be8b d4bb af84 72bd 5d65 e23d
000003b0: 02c2 a83d d665 a3bd 4020 f73c 1d38 59bd
000003c0: c4cf c6bc fa17 6a3d 0a53 7bbd df7d 103e
000003d0: 4835 ec3c 56e8 b33d 967f 98bd 6d4b 033e
000003e0: 6a03 143e ea07 a23d 0a8e 0dbd de6d ce3d
000003f0: f29c 313d a348 bdbc 9a79 a3bd d0ec d23d
-0.128417 -0.024418265 -0.048148446 -0.025267247 0.0030584463 -0.08538005 -0.011915205 0.033250757
-0.09734394 -0.10719224 0.0091621345 0.009099769 0.04225864 0.07353337 0.054689974 0.066776216
-0.03075806 -0.0047697364 0.05422057 0.06992134 0.08495646 -0.019771742 -0.0008637166 0.018742368
-0.051312532 -0.009351925 0.0042305784 -0.009462856 -0.029023327 -0.036963545 0.05603708 -0.1032309
-0.039648328 -0.07061994 0.01389777 0.055912375 0.005169909 -0.05758927 -0.007016951 -0.09231728
0.059426714 -0.10088688 -0.063931905 0.04968938 0.005242385 -0.040920958 -0.11446579 0.07784264
-0.009872208 -0.020888457 0.034303997 0.01260921 0.013379648 0.026836427 -0.06158905 -0.04714422
-0.07114037 0.043395065 -0.08470273 0.02742149 -0.025526972 -0.026475806 -0.024869332 0.057565518
0.018637411 -0.09637118 0.09691815 0.07820243 0.15741862 0.05482203 -0.032024123 -0.0039943927
-0.0066134534 0.0653489 0.050758254 0.032291647 0.092346214 0.0039117783 0.054539748 0.15389088
-0.063880466 -0.025320647 0.04079693 0.04169214 -0.07329587 0.10941824 -0.06968851 -0.052332886
0.0039877975 0.023711124 -0.09865992 0.06233205 0.11642497 -0.041770358 0.050659098 -0.02585291
-0.07175794 -0.0667288 -0.07274412 -0.0037876302 0.054856792 -0.071292326 -0.04992812 -0.046715353
-0.008478052 -0.10903447 -0.015941793 -0.040004514 -0.031882424 0.0971615 -0.09278 -0.057686053
0.03542172 -0.090073586 0.06921793 -0.087912515 0.0020156875 0.026701638 -0.081729636 -0.037295874
0.091522194 0.064867385 -0.09198889 -0.084104076 0.09389223 0.0025017492 -0.054195065 -0.042309005
-0.09089719 -0.09145452 0.02805457 0.0051417407 0.021043798 -0.06994011 0.05947613 0.041106783
-0.070069596 8.1788894e-05 0.055307683 -0.035256457 -0.022492059 0.013589747 -0.000112566675 -0.0011851967
-0.10056961 0.0076770843 -0.003121047 -0.047337454 -0.0771447 0.023467913 0.026907787 0.03176552
0.04275988 -0.0010607878 -0.02068026 0.010288127 -0.012307176 -0.07186654 0.035098393 0.08648947
-0.03972286 0.10583679 0.069285475 0.0749584 0.12415459 0.03036641 -0.016475514 -0.00648222
0.079894155 0.080900155 0.031542238 0.021279825 0.027570233 -0.017780632 0.045644067 0.052960116
0.0098871 -0.11129922 0.0704298 0.12545586 -0.017538175 0.0092919525 -0.00041233003 0.06782076
0.07818492 0.108563595 -0.08197807 0.05501631 0.03583036 0.017804552 -0.08008257 -0.08918479
0.04684411 0.013601425 0.04400168 0.009327648 0.040670965 0.0021186618 0.03812678 0.028191382
-0.04232837 -0.05335625 -0.0013015105 0.09619718 -0.045486014 0.009170346 -0.008835567 -0.062138427
0.024298277 -0.06381988 -0.09302544 -0.10060197 -0.0060236827 -0.027756426 -0.080571905 -0.061494354
0.021357002 -0.10672097 -0.03245163 0.067996636 0.03810449 0.0032386812 -0.076427065 0.030574232
-0.09504326 0.03923219 0.0041173245 0.06274996 0.079085834 -0.056527916 0.10801084 0.0833331
0.115451954 -0.006486385 -0.05920857 0.1105449 0.08240129 -0.07978408 0.030166745 -0.05303203
-0.024268992 0.057151772 -0.06135849 0.14110516 0.028834 0.08784549 -0.0744621 0.12821741
0.14454427 0.07911666 -0.034559287 0.10079549 0.043362565 -0.023105925 -0.07982178 0.10299075

sequential/dense/BiasAdd/ReadVariableOp f4 [128]
00000000: fa8c c43c 0000 0000 30ed 7ebc b54d c93b
00000010: 6388 8fbb 94a8 b93c 71ad 5abc ca5e 4c3c
00000020: 059d 803c 54c4 ddb9 19cb 6f3c 1438 9c3c
00000030: 7035 89bc 2db8 ccbb 0000 0000 a9a1 00bc
00000040: 228f 63bc 5081 3abc 0890 2c3c f069 eb3b
00000050: ee7b acb9 431f 7c3b 2452 cc3b dbbf 00bc
00000060: d726 883b a1d2 513c 8e05 a73b b663 773c
00000070: 040e aebb 458b 963b 8eeb 943b 470c 3e3c
00000080: 0000 0000 5c11 df3c ab9e 9abb aec4 dcbb
00000090: 0000 0000 2520 953c 6018 833b 3cf7 773b
000000a0: 0000 0000 0000 0000 dabf 47bc 0000 0000
000000b0: 8389 2c3c ebeb 8d3c ee96 05bc 4ca4 04bc
000000c0: 94e8 69bc 0000 0000 f22d 3e3c 53b0 c63b
000000d0: 9886 4ebb 0000 0000 ae72 a73c c8ed 8b3c
000000e0: 1bc0 e53b f17c 623b 5a13 1cbc bcba aa3c
000000f0: 492e 05bc 41aa 26bc bc95 b83c a9d3 a23c
00000100: 0b6c 91bc 0000 0000 7154 303c fef7 09bc
00000110: bee4 27bc 0000 0000 7ed7 85bc 3cb7 a0bb
00000120: a638 0cbc acfb f4bb 8a87 133c c7a8 1abc
00000130: 5d9d aa3b c546 fc3b c0e4 1cbc 138c 72bb
00000140: 09e1 c03c 1c14 a9bb f0f0 57bc 0ad1 00bb
00000150: 89ab 5bbc 0000 0000 c928 80bc 5b2b 1fbb
00000160: c869 c23c f0ff c8bb 5932 58bc 2294 113c
00000170: d825 46bb 805b 46bc 0000 0000 d19e a1bb
00000180: 11a3 fabb 18fa dcba 2a86 5e3c 0000 0000
00000190: 2b5b 54bc 6d40 1f3c 72f4 6e3c 83dd d33c
000001a0: 320d f6bb 8b34 42bc 705b 813b f017 fbba
000001b0: 6f47 a73c 1ab6 aabb 90e4 9b3c 19e6 773b
000001c0: 6a66 83bb 8c11 1dbc 4e5d 05bc 03ed 38bb
000001d0: 80bf c4bb 1999 c73c b0a8 32bc 0882 3f3b
000001e0: 8926 803c 98b3 eabb b6c2 09bc 5b6a eb3b
000001f0: 8b41 55bc 0000 0000 f96c 4a3c 0117 343c
0.023993004 0.0 -0.01555948 0.0061432966 -0.0043802722 0.022663392 -0.013347016 0.012473771
0.015699873 -0.0004229868 0.014635825 0.019069709 -0.016749114 -0.0062475414 0.0 -0.007851043
-0.013889106 -0.01138337 0.010532387 0.0071842596 -0.0003289873 0.0038470782 0.006235378 -0.007858242
0.0041550207 0.0128065655 0.0050970977 0.0150994565 -0.0053117294 0.004594239 0.004544682 0.011599607
0.0 0.027229957 -0.0047186217 -0.0067373132 0.0 0.018203804 0.0040007085 0.0037836572
0.0 0.0 -0.012191737 0.0 0.010530832 0.017324409 -0.00815366 -0.008095812
-0.014276642 0.0 0.011607634 0.0060635 -0.003151333 0.0 0.020440426 0.017081156
0.007011426 0.0034559334 -0.009526098 0.020840995 -0.008128711 -0.010172428 0.022532336 0.019876318
-0.017751714 0.0 0.01076232 -0.008420942 -0.0102474075 0.0 -0.016338106 -0.0049046557
-0.008558428 -0.0074762907 0.009004483 -0.009439654 0.0052067474 0.007698866 -0.009576023 -0.003700976
0.023544805 -0.005159868 -0.013180003 -0.0019655847 -0.013407596 0.0 -0.015644448 -0.0024287316
0.023732081 -0.0061340258 -0.013195598 0.008885415 -0.003023496 -0.012106776 0.0 -0.0049322625
-0.0076488336 -0.0016859202 0.013581792 0.0 -0.012961189 0.00971995 0.0145846475 0.025862461
-0.007508897 -0.0118533475 0.003947668 -0.0019156914 0.020419804 -0.0052096965 0.019029886 0.0037826358
-0.0040100114 -0.009586703 -0.008139921 -0.0028217442 -0.006004274 0.024364995 -0.010904476 0.0029221792
0.015643375 -0.0071625225 -0.008408239 0.0071843094 -0.013016115 0.0 0.012355083 0.010991813

sequential/dense_1/BiasAdd/ReadVariableOp f4 [3]
00000000: 5b48 adbb a341 31bc 2d17 6d3c
-0.0052881665 -0.010818872 0.014470858

sequential/dense/MatMul f4 [128, 128]
00000000: 479f 063e e2c0 f13b ac45 7d3c bf49 86bc
00000010: 146b 153e db33 02be a439 a13d 43ff 66bd
00000020: d4a5 7d3d a5b5 c53d 31e1 96bd 1726 09be
00000030: a73f c1bd a5ed 0cbe bda8 b43d 61fa c43d
00000040: 2458 9d3d 30de 10be 70d5 2d3c 0b9c ea3c
00000050: 8423 133d 02cc cbbd d114 393e 2301 c8bc
00000060: 28a7 063c 241f a63d 17ea e9bd 3709 17be
00000070: c8f4 b53d 0cdd 883d 39b6 eebd 2923 ee3d
00000080: 5f50 e43d d08c 203d a35b 96bd ecca 7d3d
00000090: 893c 113c ae3e b53d c1bb 113d 56f6 9cbd
000000a0: 2886 a63d 6707 d2bd 82a2 2dbc f20c ca3d
000000b0: 6206 423e 629f dd3d 34e8 1d3e 7c6a b63d
000000c0: 0c25 4e3d 6454 4bbd 90dd f23c 3cd9 03bc
000000d0: 52ee 0abe 17af a13d 3f56 013e 8407 0e3d
000000e0: 8352 91bd ddaa 1d3e 2b79 dbbd 3b72 083e
000000f0: ec83 fbbd 5ca5 abbd 7e66 4abd d921 cb3d
00000100: f1fb aebd 1ae3 443d 04b2 10be cdae f9bd
00000110: 24c4 d23d 4b46 fd3d 242c fb3d 8801 cebd
00000120: 5087 273d ca2c d23d fef2 113e 3737 73bd
00000130: 1889 08bd 3076 16be 7969 77bc 85af 323e
00000140: 952c 4fbc dfb5 c23c cf72 7cbd 5137 23bd
00000150: 6d29 c4bd d98e c8bc 49ad 56bd 2bd4 33bd
00000160: 1507 71bd 5c8d 843d 6aae 77bd 80f3 0ebc
00000170: 6cf5 f73d 0256 6fbd 761f 013d 53be 55bd
00000180: adc6 f8bd abc6 20be d94d b2bc 881d 783d
00000190: 72ff ca3d 5076 bebc d098 39bd cf49 56bd
000001a0: 994d 12be 01ad 82bd 70fc 85bd 7b6f e0bd
000001b0: fb9a 2d3e 7411 7d3d 079f 2abb e233 8cbd
000001c0: c519 07be 5e2b 023d 12fa cfbb 5502 ea3d
000001d0: 8e9f b6bb 3918 f43d 7183 403e 5322 1d3e
000001e0: 4775 2ebe f173 253e 1e19 8bbd 0079 923d
000001f0: 2ad5 ea3d 8649 eebd 5439 163d 982a 3bbd
00000200: 005c 1339 7c70 d5bd 0640 fd3d f5c0 1bbe
00000210: 058a 8dbd 4d8c 16be b575 0e3e 88b7 6c3d
00000220: a0d0 39bc fbea 033e 1c33 5d3d 6ea7 d0bd
00000230: 75d5 0dbe 4015 753c 0ffa 10be d425 043d
00000240: eb28 0b3e 3657 0bbe ee1c ee3d 4cfb 153d
00000250: d895 a9bc ca51 bcbd 5adf c5bd 4dfc 153e
00000260: e8c8 e2bd 808f c9bc b8a6 a9bd c8dc 37bd
00000270: 3a2c 2fbd 51ec 123e b02a 8c3d 46e4 e93d
00000280: a60e 62bd 1c7d 883d e279 cabd 33c2 12be
00000290: f2d9 e43d fe69 df3d 07cc aebd c03f bf3d
000002a0: 3a54 f63d f015 b93c d72e 18be 697d 0dbe
000002b0: 808c 6f3c 8256 13be 88e4 e5bd c903 063e
000002c0: a290 8ebd 88e7 d13c b4d2 73bd 4098 1dbb
000002d0: caf2 05be 0b8c 163e 97b7 053e 0e85 c73d
000002e0: aca3 8abd 706e 2f3d d8cd db3c 5a14 823d
000002f0: 4d20 12be 40b7 14bb 20de cebd 47ad 0c3e
00000300: 5bc3 153e c04a f93b 90fa 0dbe 4406 873d
00000310: 7014 a2bc 6834 acbd 6022 1abd 33dc 0b3e
00000320: 7010 b63c 5088 9cbd a068 4bbc 0430 dfbd
00000330: d4e6 c6bd bb48 e0bd b2ea e7bd a60d 65bd
00000340: 2054 f4bd 246e 2f3d e3e1 8cbd 8253 fb3d
00000350: 55f6 9cbd a406 2b3d fa72 e1bd 62fe 0fbe
00000360: b1e3 043e f019 a8bd d6e9 d6bd cab9 b23d
00000370: b234 c93d ac02 573d 499f 0d3e 549e 11be
00000380: 9835 19be f850 f1bc ee08 1bbd dc91 12be
00000390: 8032 0ebc 2979 87bd ae93 4ebd 6821 cbbd
000003a0: 7aa1 d73d 30f9 40bc cfd1 99bd 0095 20bc
000003b0: bcbf b53d e837 893d 6e43 da3d c0c0 773b
000003c0: 7591 f2bd 7fbc 133e 801c ba3c 54d7 1a3d
000003d0: b171 143e a6a2 dabd 4a53 08be 1c92 2f3d
000003e0: 0077 5d3c c015 87bc 738d 17be 6006 7f3d
000003f0: d153 0cbe 2154 023e dd28 0ebe 175d 93bd
0.13146697 0.0073777298 0.015458506 -0.016392587 0.14591628 -0.12715094 0.07872322 -0.05639578
0.061925724 0.096537866 -0.073671706 -0.13393436 -0.09435969 -0.13762529 0.08821247 0.096180685
0.07682827 -0.14147258 0.0106099695 0.02863886 0.035922542 -0.09951021 0.18074347 -0.024414605
0.008218564 0.08111408 -0.11421602 -0.14749609 0.08884579 0.06682786 -0.1165585 0.116278
0.11148142 0.03919679 -0.07341697 0.0619611 0.00886453 0.08849846 0.035579447 -0.07664172
0.08131057 -0.10255318 -0.010597827 0.0986575 0.18947747 0.108214155 0.1542061 0.08907029
0.0503283 -0.049641028 0.029646665 -0.008047398 -0.13567474 0.07894724 0.12630557 0.034675136
-0.07095816 0.1539721 -0.1071647 0.13324825 -0.122810215 -0.08381149 -0.04941415 0.09918565
-0.08544148 0.048068143 -0.14130408 -0.12191544 0.10291317 0.12366923 0.122642785 -0.10058886
0.04090053 0.10262449 0.1425285 -0.05937883 -0.033333868 -0.14693522 -0.01510083 0.17449768
-0.0126449065 0.023768364 -0.061632928 -0.039847676 -0.09578214 -0.024482178 -0.05241135 -0.04390351
-0.058844645 0.06472275 -0.06046907 -0.008725047 0.121073574 -0.058431633 0.031524144 -0.05218346
-0.121472694 -0.15700786 -0.021765636 0.06057504 0.099120036 -0.023249775 -0.04531175 -0.052316483
-0.14287414 -0.06380654 -0.06542289 -0.10958763 0.16953652 0.061784223 -0.002603473 -0.06845833
-0.13193424 0.03177964 -0.0063469494 0.11426226 -0.0055732196 0.119186826 0.18800141 0.15345125
-0.17036925 0.1615751 -0.067919 0.07151985 0.11466439 -0.11635117 0.036675766 -0.045694917
0.00014053285 -0.10421845 0.12365727 -0.15210326 -0.06911091 -0.14701958 0.13912089 0.057792217
-0.011341244 0.12882607 0.05400382 -0.10188185 -0.13850959 0.01495868 -0.1415789 0.03226264
0.13589828 -0.13607487 0.11626612 0.03661661 -0.020701334 -0.091952875 -0.096617416 0.14647026
-0.11073476 -0.024604559 -0.08283752 -0.044888288 -0.042766787 0.1434796 0.068440795 0.11420493
-0.05518975 0.06664488 -0.098865286 -0.14331894 0.11174382 0.10908888 -0.08535009 0.09338331
0.12027784 0.022593468 -0.14861618 -0.13817371 0.0146209 -0.14388469 -0.112252295 0.13087381
-0.0696118 0.025623098 -0.059527114 -0.0024047047 -0.13080898 0.1470186 0.13058315 0.09742175
-0.06769499 0.04282993 0.026831552 0.06351538 -0.14270134 -0.0022692233 -0.10100961 0.13737975
0.14625303 0.007607788 -0.13865113 0.06592992 -0.019785136 -0.08408433 -0.03763044 0.13658218
0.022224635 -0.07643187 -0.012415081 -0.1089783 -0.09711996 -0.10951372 -0.113240615 -0.05592122
-0.11930108 0.042829648 -0.06879022 0.12271787 -0.076641716 0.04175438 -0.11008258 -0.14061883
0.12977482 -0.08208072 -0.104938194 0.08726843 0.09824504 0.052492782 0.13830294 -0.14220554
-0.1496185 -0.029457554 -0.037850313 -0.14313453 -0.008679032 -0.06614906 -0.050433807 -0.09918481
0.10528846 -0.011778161 -0.07510721 -0.009801149 0.08874461 0.067001164 0.106573924 0.0037804097
-0.1184415 0.14427374 0.022718668 0.03780301 0.14496495 -0.10675554 -0.13313022 0.04286395
0.013517141 -0.016489863 -0.14800052 0.06226194 -0.13703848 0.12727405 -0.13882776 -0.0719549

sequential/dense_1/MatMul f4 [3, 128]
00000000: 780f 0b3d d1f2 143e 489b 00be e199 583e
00000010: 1369 163e 0a4b f73d 641f c33d 931d 593e
00000020: 7851 823d 7f10 ed3d 602d 0f3d 83bc 05be
00000030: 6fcc 813c 97e6 973d 301c ec3c 9089 fdbd
00000040: f878 fdbd 1b89 363d 2f98 6f3e 9c2e e13d
00000050: fb59 3ebe d339 5a3e 5ef8 dabc 4965 74be
00000060: 4c26 11be 16cb 25bd 3e12 1fbe 2f97 cb3d
00000070: bc60 23be ba57 793c ebbe 40be 6603 7cbd
00000080: ec9a 273d 5ded d0bd e54a d9bd 8b97 6f3d
00000090: 2076 e9bb d12d 18be 7614 1cba 458e 473e
000000a0: b2e5 2abe 566e 9e3d cd5d e4bd 14aa 86bd
000000b0: f649 67be db99 1cbe 0134 6f3c 59ea 3a3d
000000c0: 6738 11bd fc9e 1cbe 55ff 10be d73c 403e
000000d0: 5a5d 02be e049 b23c 68ec 86bd ec2a 583e
000000e0: 3ea1 843d 8dc4 04bd b248 21be 1972 2f3e
000000f0: 6c97 3ebe 9c68 383e 0279 753e 8c79 ff3d
00000100: e1a8 ee3d 988f 12be caec a23a 7c39 e3bd
00000110: 0121 a2bd 5d31 033e f425 26be 530a 9dbd
00000120: 41b9 52bd 6864 443e 28bd 87bd bc3c 673d
00000130: cd78 303e a5b6 cbbc 78d2 443d 5cda 04be
00000140: e9ce 503e 83f8 68bc 3bfe d13d 3e2c 843d
00000150: 8e4d 003e bbb2 ecbd 4aab f2bc 86fc 3d3e
00000160: bf43 b33d b665 3c3d b733 c7bd adf2 06be
00000170: 3569 4abc 4e7c 643e 1e50 cf3d a037 f63d
00000180: 0eef 39be d146 3f3e eba4 adbd 403e 0f3c
00000190: f7a9 293e 4d48 663c a68c 803d bb7f 103e
000001a0: 1ea2 09be e14a 20be bb51 5fbe 4063 42be
000001b0: 4eaa e33d 03e9 8bbd 45d4 30be b5b3 083e
000001c0: b5c9 f7bd 1a44 313e a138 3bbe 51bc d4bd
000001d0: 612f 22bd 331a 7ebe 2ffa 47be 544e 283e
000001e0: 2f94 01be 4ac8 ebbd a81e 01be 6422 f63d
000001f0: 3d94 923c d0d7 36bc 266b 86bd f4fe 0c3e
00000200: 6c47 253e 9832 f6bc d468 34bd cdc4 57be
00000210: 9a10 793e d21a bcbd f09e f73c 0ad9 0fbe
00000220: fcc8 78be 7348 c93d 5af1 5cbe 11c1 263d
00000230: 501d 4b3c 828d 4b3e 0392 193e 46c6 1b3e
00000240: ead4 fb3d 029e 023e f049 84be ab18 77be
00000250: 91bd 623e 5d0b 593e 8ec9 84bd 6546 4a3e
00000260: 4404 5d3e e98a 1fbe eed6 1abe f1ab 58be
00000270: 4f45 493c 675f 5ebd 2797 3b3c 19e5 b83c
00000280: 14ea 703d a517 80be 41d1 28be 2d0e 7a3d
00000290: 6e38 3cbe 80af 63be 2a9f 3dbc bef5 503e
000002a0: 724c b53d f294 c8bd 2fa6 b03d 7df2 213e
000002b0: 22c1 03be 8e96 28bd 2c99 84bd 9223 a83a
000002c0: 6104 4cbc ac73 393d 640c 0b3e 921b 41be
000002d0: cb33 26be 86fd 8a3d c184 32be 51a0 27bd
000002e0: c4fb b4bd 0018 293e 648c 09bd 85d6 eebd
000002f0: 91e3 f93c 8364 f73c 969e 32be 6384 75be
00000300: 555f 333e 37d6 143e e41e 14be 5fee a1bc
00000310: 6274 2d3e fa19 91bd d208 6cbd df7e df3d
00000320: ffa6 0fbe 973d 373e ae6e 6cbd 61c3 673d
00000330: cfd8 5cbe f76b 3ebe 85a8 84bd c139 1cbe
00000340: 58c1 4fbe 5723 473e 0545 073e 77e1 78bd
00000350: 0cb5 483e cd77 403e 65de 493d 018b bcbd
00000360: 5946 90bd f2d3 58bd 80f0 2cbe 8d9f 3d3e
00000370: 6ad5 e73c 5e31 b53c 1455 213d 728e 383e
00000380: b494 4f3e 6467 6bbd 3a16 54bd 20bd f5bb
00000390: 9ca0 773e f539 12be bdb3 c13b e21f 86be
000003a0: d616 a8bd 7555 07be 5faa 99ba d0c3 cf3d
000003b0: 087b e1bd 3503 463e ec79 3e3e 8769 4ebe
000003c0: 9132 3d3d 1f24 0b3e 4928 71bc 4ba9 563e
000003d0: aeeb cf3c 0fa2 06bd 0b93 41be 68a7 36be
000003e0: fd12 1fbe 81ac 173e 5297 b53d 1a66 553e
000003f0: b7fd 5fbd 702f 8fbd d3ec 0f3e 9b75 67be
0.0339503 0.14545752 -0.12559235 0.2115245 0.1468852 0.120748594 0.09527472 0.21202688
0.06363195 0.11575412 0.034955382 -0.13060193 0.015844552 0.074170284 0.028822035 -0.123797536
-0.123765886 0.044564348 0.23397897 0.10995218 -0.18589012 0.2131112 -0.026729759 -0.23866762
-0.14174765 -0.04047688 -0.15534303 0.09940945 -0.1595487 0.01521867 -0.1882283 -0.06152668
0.04091923 -0.102015235 -0.10609988 0.058494132 -0.0071246773 -0.14861228 -0.00059539767 0.19487865
-0.16689184 0.07735889 -0.111507036 -0.065754086 -0.22586808 -0.15293066 0.014599801 0.045633648
-0.03545418 -0.15295023 -0.14159901 0.18773209 -0.12730923 0.021763742 -0.0658806 0.21110123
0.06476067 -0.032414008 -0.15750387 0.17133369 -0.1861245 0.18008655 0.23971942 0.12474355
0.11653305 -0.14312589 0.0012430188 -0.11094949 -0.07916451 0.128118 -0.16225415 -0.07667985
-0.051446203 0.19178927 -0.066278756 0.056454405 0.17233582 -0.024867365 0.04805228 -0.12973922
0.2039143 -0.014219406 0.10253569 0.06453751 0.12529585 -0.11557528 -0.029622693 0.18553361
0.08753156 0.045995437 -0.09726661 -0.13178511 -0.012354185 0.22313043 0.10122703 0.120223284
-0.18157598 0.18679358 -0.08478721 0.008742869 0.16568743 0.014055324 0.062768266 0.14111225
-0.13440749 -0.15653564 -0.21808521 -0.18983173 0.111164674 -0.06831553 -0.17268474 0.13349803
-0.120990194 0.17311135 -0.18283321 -0.10387481 -0.039595965 -0.24814682 -0.19529031 0.1643613
-0.12654184 -0.115128115 -0.1260935 0.12018278 0.017892951 -0.011159852 -0.06563406 0.13769132
0.16140527 -0.030053422 -0.044045284 -0.21071167 0.24322739 -0.09184803 0.030227154 -0.14047638
-0.2429542 0.09828272 -0.21576443 0.040711466 0.012397125 0.198782 0.14997105 0.15212354
0.122964695 0.12755588 -0.2583766 -0.24130504 0.22142626 0.21195741 -0.06483756 0.19753416
0.21583658 -0.15580334 -0.15121052 -0.2115934 0.012284591 -0.0542902 0.011449612 0.02257018
0.058816984 -0.2501804 -0.16486074 0.061048675 -0.18380901 -0.22234917 -0.011573592 0.20406243
0.088524714 -0.09794034 0.08625447 0.15815158 -0.12866643 -0.041159205 -0.06474528 0.0012827984
-0.012452216 0.04527633 0.13578945 -0.18858173 -0.16230695 0.06786637 -0.17433454 -0.040924374
-0.08837083 0.16513062 -0.033581153 -0.1166201 0.03050402 0.030199295 -0.17443308 -0.23976283
0.17516835 0.14534841 -0.14464909 -0.019766985 0.16938928 -0.07085033 -0.0576256 0.109128706
-0.14028548 0.17894588 -0.05772274 0.056582812 -0.21567081 -0.18595873 -0.06477455 -0.15256406
-0.20288599 0.19447075 0.13209923 -0.060761895 0.19600314 0.187957 0.049284358 -0.092062004
-0.07044668 -0.0529365 -0.16888618 0.18517895 0.028300006 0.022118267 0.039387777 0.18023089
0.2027157 -0.057471648 -0.05177901 -0.007499352 0.24182361 -0.14279921 0.005911319 -0.261962
-0.082074806 -0.13216193 -0.0011723748 0.1014477 -0.110097945 0.19337161 0.18601197 -0.20157443
0.046190802 0.13587998 -0.014719077 0.20963018 0.025380936 -0.032869395 -0.18903749 -0.17837298
-0.15534587 0.14811899 0.08866753 0.2083973 -0.05468532 -0.0699147 0.14055185 -0.22603457
